script/model/ja_fingerspelling.tflite (tflite, 102144 bytes, 7 tensors)

lstm_3/lstm_cell_4/bias f4 [512]
0	0x3da7c0f2	0.08191098
1	0x3d65d9d2	0.056115933
2	0x3daab693	0.083356045
3	0x3d9fce29	0.07802994
4	0x3dc22aa2	0.09480788
5	0x3db15e03	0.086605094
6	0xbac925b5	-0.001534632
7	0x3da77614	0.081768185
8	0x3d893ba6	0.0670083
9	0x3dde46c3	0.108533405
10	0x3decc254	0.11560503
11	0x3c8c1c9b	0.017103484
12	0x3d7e84a6	0.062138222
13	0x3d80a967	0.06282311
14	0x3d7542a8	0.05987802
15	0x3dc86ca3	0.09786346
16	0x3d4c22cc	0.049837872
17	0x3dcb5ead	0.09930167
18	0x3d93d77b	0.07218834
19	0x3cd7bac4	0.026334174
20	0x3e0a9db9	0.13536729
21	0x3da736ff	0.081647865
22	0x3dbba99e	0.09163211
23	0x3d9f0ae5	0.0776575
24	0x3d8f2084	0.06988624
25	0x3dff84b6	0.124764845
26	0x3e0bb573	0.13643436
27	0x3d9a6436	0.07538645
28	0x3ca84a2d	0.020543182
29	0x3d63c997	0.055612173
30	0x3cf55ba8	0.029950932
31	0x3bfc4a6c	0.0076993015
32	0x3d88d58f	0.06681358
33	0x3da5a802	0.080886856
34	0x3d815653	0.06315293
35	0x3dea489d	0.11439631
36	0x3db26f49	0.08712632
37	0x3cd7e4ba	0.026354183
38	0x3cc554df	0.024088321
39	0x3c4164fd	0.011803863
40	0x3d54ede3	0.05198468
41	0x3dbf270e	0.09333621
42	0x3d89817e	0.06714152
43	0x3da7e11f	0.08197235
44	0x3d7e0cb7	0.062023845
45	0x3dcc1f01	0.09966851
46	0x3e2e8d61	0.1704612
47	0x3dd6167c	0.10453507
48	0x3e2ed9d5	0.17075284
49	0x3cae2bb0	0.021261066
50	0x3d722d8d	0.05912547
51	0x3dd27222	0.10275675
52	0x3dbf55cc	0.09342536
53	0x3d9b833f	0.075933926
54	0x3d93276b	0.07185253
55	0x3d37ef61	0.044906024
56	0x3db3be34	0.08776513
57	0x3e1844b0	0.14869952
58	0xbccdd7c0	-0.025127292
59	0x3d7bfa39	0.061517928
60	0x3dd155ce	0.10221444
61	0x3db2a0a8	0.08722049
62	0x391d0443	0.00014974274
63	0x3d4b9df4	0.049711183
64	0x3d876cb3	0.066125296
65	0x3c1d3a17	0.009596369
66	0x3d876937	0.06611865
67	0x3e124679	0.14284696
68	0x3d6c5e14	0.057706907
69	0x3d71693f	0.05893826
70	0x3da69409	0.08133704
71	0x3db3a536	0.08771746
72	0x3de8fc7b	0.11376282
73	0x3e183533	0.14864044
74	0x3df14648	0.11780983
75	0x3c732c67	0.014842129
76	0x3db2b454	0.08725801
77	0x3cfa6c07	0.03056909
78	0x3cc357a0	0.023845494
79	0x3d51bf74	0.051207975
80	0x3d878ac1	0.06618262
81	0x3cfc8890	0.030826837
82	0x3d437099	0.047714803
83	0x3e13c7b3	0.14431648
84	0x3d11d4b2	0.035603233
85	0x3b48cc8a	0.0030639493
86	0x3d21b139	0.039475653
87	0x3d20866e	0.039190702
88	0x3dc0d91c	0.0941641
89	0x3c81e3b5	0.01585565
90	0x3d8908f6	0.06691162
91	0x3e4ba7a2	0.19888166
92	0x3d959bd1	0.0730511
93	0x3e1bee59	0.15227641
94	0x3d539263	0.051653277
95	0x3d41623e	0.04721283
96	0x3da4364c	0.08018169
97	0x3da3eb7b	0.08003899
98	0x3d64939a	0.055804826
99	0x3e055e85	0.13024338
100	0x3e17b037	0.14813314
101	0x3ddb49c8	0.10707432
102	0x3be1bef8	0.0068892203
103	0x3d4ca977	0.0499663
104	0x3d0d3692	0.03447587
105	0x3dfa1eac	0.122128814
106	0x3db88401	0.09009553
107	0x3e1614e0	0.146564
108	0x3d8f0b9d	0.06984637
109	0x3da12608	0.07868582
110	0x3db9f28a	0.09079464
111	0x3df9be81	0.12194539
112	0x3d824bba	0.063621
113	0x3ae8b942	0.0017755406
114	0x3dc530ab	0.09628423
115	0x3da461f8	0.080264986
116	0x3d8384c2	0.06421806
117	0x3de67965	0.11253623
118	0x3e094e06	0.1340867
119	0x3de389d0	0.1111027
120	0x3d523e2b	0.05132882
121	0x3dc36039	0.095398374
122	0x3da07644	0.078350574
123	0x3cffcaf4	0.031224705
124	0x3d3fb6f5	0.04680534
125	0x3d0252f0	0.031817377
126	0x3d565e94	0.05233629
127	0x3daf9e5b	0.08575126
128	0x3f86e24a	1.0537808
129	0x3f7f9352	0.9983417
130	0x3f81692c	1.0110221
131	0x3f7f7492	0.9978725
132	0x3f84da58	1.0379133
133	0x3f80eeec	1.0072913
134	0x3f7a6a01	0.97818
135	0x3f714f2c	0.9426143
136	0x3f8090e7	1.0044221
137	0x3f8680ee	1.0508096
138	0x3f84fb08	1.0389109
139	0x3f7b5e41	0.98190695
140	0x3f808f78	1.0043783
141	0x3f82e641	1.0226518
142	0x3f7ca6df	0.98692125
143	0x3f8451fc	1.033752
144	0x3f83d9ae	1.0300806
145	0x3f83d8e2	1.0300562
146	0x3f7b74f1	0.98225313
147	0x3f757b34	0.9589112
148	0x3f877124	1.0581403
149	0x3f7db148	0.99098635
150	0x3f8ac4eb	1.0841345
151	0x3f83c77c	1.0295253
152	0x3f7c79a9	0.9862314
153	0x3f8489e3	1.035458
154	0x3f83513c	1.0259166
155	0x3f7b9d37	0.98286766
156	0x3f848123	1.0351909
157	0x3f819cd7	1.0125989
158	0x3f855521	1.0416604
159	0x3f720f55	0.94554645
160	0x3f7ee35b	0.99565667
161	0x3f7fd9e9	0.9994188
162	0x3f82637b	1.0186609
163	0x3f78c22c	0.9717128
164	0x3f857546	1.0426414
165	0x3f7ee77e	0.9957198
166	0x3f7ce2f0	0.9878378
167	0x3f6f622e	0.93509185
168	0x3f836803	1.0266117
169	0x3f8a4940	1.0803604
170	0x3f80d4a0	1.0064888
171	0x3f81356d	1.0094429
172	0x3f816724	1.0109601
173	0x3f87d645	1.0612265
174	0x3f8c64ed	1.09683
175	0x3f809d58	1.0048018
176	0x3f874b78	1.0569906
177	0x3f77bf3e	0.9677619
178	0x3f800f43	1.0004658
179	0x3f823df6	1.0175159
180	0x3f85a0b2	1.0439665
181	0x3f7e184c	0.99255824
182	0x3f7e5eac	0.9936321
183	0x3f7e17a9	0.9925485
184	0x3f7de8c2	0.99183285
185	0x3f87e3c2	1.0616381
186	0x3f717001	0.9431153
187	0x3f7c59ac	0.9857433
188	0x3f869bae	1.051626
189	0x3f7b66a9	0.9820352
190	0x3f755f84	0.9584887
191	0x3f7e5bee	0.99359024
192	0x3f82ea1c	1.0227695
193	0x3f75b51d	0.9597948
194	0x3f78e943	0.9723093
195	0x3f8a4d7d	1.0804898
196	0x3f80a763	1.0051082
197	0x3f819de6	1.0126312
198	0x3f8776e2	1.0583155
199	0x3f823ad5	1.0174204
200	0x3f84d800	1.0378418
201	0x3f92b3dc	1.1461139
202	0x3f891780	1.0710297
203	0x3f7451e4	0.95437455
204	0x3f8804c7	1.0626458
205	0x3f81ada6	1.0131118
206	0x3f764379	0.96196705
207	0x3f82d91a	1.0222504
208	0x3f7fde5b	0.9994866
209	0x3f7fdf28	0.99949884
210	0x3f7fe745	0.99962264
211	0x3f855ff4	1.0419908
212	0x3f82dac3	1.0223011
213	0x3f7d90ab	0.9904887
214	0x3f80137c	1.0005946
215	0x3f76f692	0.96469986
216	0x3f845a65	1.0340086
217	0x3f7197cb	0.9437224
218	0x3f7c6ef5	0.98606807
219	0x3f8c0b84	1.0941014
220	0x3f78f99e	0.97255886
221	0x3f87eb3f	1.0618666
222	0x3f817f6e	1.0117013
223	0x3f805dca	1.0028622
224	0x3f76eff9	0.9645992
225	0x3f88ebec	1.0696998
226	0x3f7aabbc	0.97918296
227	0x3f852f0b	1.0404981
228	0x3f841f6e	1.0322092
229	0x3f81c0d6	1.0136974
230	0x3f747bf2	0.95501626
231	0x3f806459	1.0030624
232	0x3f82623e	1.0186231
233	0x3f8892c6	1.0669792
234	0x3f7de751	0.99181086
235	0x3f85d923	1.045689
236	0x3f823b14	1.0174279
237	0x3f8620d8	1.0478773
238	0x3f84b2ec	1.0367103
239	0x3f848c7d	1.0355374
240	0x3f826002	1.0185549
241	0x3f762c9b	0.9616181
242	0x3f8a398d	1.0798813
243	0x3f87b751	1.0602819
244	0x3f771b1a	0.9652573
245	0x3f867c66	1.0506713
246	0x3f8a289b	1.0793642
247	0x3f860346	1.0469749
248	0x3f835657	1.0260724
249	0x3f9019cb	1.1257871
250	0x3f81d896	1.0144222
251	0x3f792e25	0.97336036
252	0x3f86f2bb	1.0542825
253	0x3f8251b5	1.0181185
254	0x3f7a864f	0.9786119
255	0x3f81e7b1	1.0148832

dense_3/bias f4 [47]
0	0xbba504f4	-0.005035991
1	0x3bfdaea3	0.0077417656
2	0xbcb1efc4	-0.021720774
3	0xbd82476d	-0.0636128
4	0x3d4c7559	0.0499166
5	0xbdace091	-0.0844127
6	0xbe36ea86	-0.17862901
7	0xbcb20c27	-0.02173431
8	0xbce56bf7	-0.028005583
9	0xbd5209a5	-0.05127873
10	0x3cf33618	0.02968888
11	0xbe05393c	-0.13010114
12	0xbdfcc8ff	-0.123430245
13	0xbda994f4	-0.08280364
14	0x3d4c3f7e	0.04986524
15	0xbd42904d	-0.047500897
16	0x3d484a70	0.048899114
17	0xbc3e70c2	-0.011623563
18	0xbdba0595	-0.09083096
19	0xbd134d0a	-0.035962142
20	0x3cbac104	0.022797115
21	0x3d14334e	0.03618174
22	0x3cc16eb1	0.023612352
23	0x3d0ff2df	0.03514373
24	0x3cf56e0b	0.0299597
25	0x3e26ca78	0.16288173
26	0xbc2b388a	-0.010450492
27	0x3b8e941a	0.004351151
28	0x3bd2ca62	0.0064328173
29	0xbdc381ab	-0.095462166
30	0x3dc27238	0.09494442
31	0x3bfde63a	0.0077483924
32	0xbda4123f	-0.08011293
33	0xbe3e4cb6	-0.1858395
34	0xbcef1fb8	-0.02918993
35	0xbe0dc8c0	-0.13846111
36	0xbd0f5f52	-0.035003014
37	0xbcb46f33	-0.02202568
38	0x3d702a5a	0.05863414
39	0x3e04bfbb	0.12963764
40	0xbdcba5d6	-0.0994374
41	0xbe430067	-0.19043122
42	0xbd1e25f5	-0.038610417
43	0xbd9274ca	-0.07151182
44	0x3d9984b9	0.07496018
45	0x3e7383a8	0.23780692
46	0xbe8aedf8	-0.2713468

TensorArrayV2_1 f4 [10, 1, 128]
0	0x00000000	0.0
1	0x00000000	0.0
2	0x00000000	0.0
3	0x00000000	0.0
4	0x00000000	0.0
5	0x00000000	0.0
6	0x00000000	0.0
7	0x00000000	0.0
8	0x00000000	0.0
9	0x00000000	0.0
10	0x00000000	0.0
11	0x00000000	0.0
12	0x00000000	0.0
13	0x00000000	0.0
14	0x00000000	0.0
15	0x00000000	0.0
16	0x00000000	0.0
17	0x00000000	0.0
18	0x00000000	0.0
19	0x00000000	0.0
20	0x00000000	0.0
21	0x00000000	0.0
22	0x00000000	0.0
23	0x00000000	0.0
24	0x00000000	0.0
25	0x00000000	0.0
26	0x00000000	0.0
27	0x00000000	0.0
28	0x00000000	0.0
29	0x00000000	0.0
30	0x00000000	0.0
31	0x00000000	0.0
32	0x00000000	0.0
33	0x00000000	0.0
34	0x00000000	0.0
35	0x00000000	0.0
36	0x00000000	0.0
37	0x00000000	0.0
38	0x00000000	0.0
39	0x00000000	0.0
40	0x00000000	0.0
41	0x00000000	0.0
42	0x00000000	0.0
43	0x00000000	0.0
44	0x00000000	0.0
45	0x00000000	0.0
46	0x00000000	0.0
47	0x00000000	0.0
48	0x00000000	0.0
49	0x00000000	0.0
50	0x00000000	0.0
51	0x00000000	0.0
52	0x00000000	0.0
53	0x00000000	0.0
54	0x00000000	0.0
55	0x00000000	0.0
56	0x00000000	0.0
57	0x00000000	0.0
58	0x00000000	0.0
59	0x00000000	0.0
60	0x00000000	0.0
61	0x00000000	0.0
62	0x00000000	0.0
63	0x00000000	0.0
64	0x00000000	0.0
65	0x00000000	0.0
66	0x00000000	0.0
67	0x00000000	0.0
68	0x00000000	0.0
69	0x00000000	0.0
70	0x00000000	0.0
71	0x00000000	0.0
72	0x00000000	0.0
73	0x00000000	0.0
74	0x00000000	0.0
75	0x00000000	0.0
76	0x00000000	0.0
77	0x00000000	0.0
78	0x00000000	0.0
79	0x00000000	0.0
80	0x00000000	0.0
81	0x00000000	0.0
82	0x00000000	0.0
83	0x00000000	0.0
84	0x00000000	0.0
85	0x00000000	0.0
86	0x00000000	0.0
87	0x00000000	0.0
88	0x00000000	0.0
89	0x00000000	0.0
90	0x00000000	0.0
91	0x00000000	0.0
92	0x00000000	0.0
93	0x00000000	0.0
94	0x00000000	0.0
95	0x00000000	0.0
96	0x00000000	0.0
97	0x00000000	0.0
98	0x00000000	0.0
99	0x00000000	0.0
100	0x00000000	0.0
101	0x00000000	0.0
102	0x00000000	0.0
103	0x00000000	0.0
104	0x00000000	0.0
105	0x00000000	0.0
106	0x00000000	0.0
107	0x00000000	0.0
108	0x00000000	0.0
109	0x00000000	0.0
110	0x00000000	0.0
111	0x00000000	0.0
112	0x00000000	0.0
113	0x00000000	0.0
114	0x00000000	0.0
115	0x00000000	0.0
116	0x00000000	0.0
117	0x00000000	0.0
118	0x00000000	0.0
119	0x00000000	0.0
120	0x00000000	0.0
121	0x00000000	0.0
122	0x00000000	0.0
123	0x00000000	0.0
124	0x00000000	0.0
125	0x00000000	0.0
126	0x00000000	0.0
127	0x00000000	0.0
128	0x00000000	0.0
129	0x00000000	0.0
130	0x00000000	0.0
131	0x00000000	0.0
132	0x00000000	0.0
133	0x00000000	0.0
134	0x00000000	0.0
135	0x00000000	0.0
136	0x00000000	0.0
137	0x00000000	0.0
138	0x00000000	0.0
139	0x00000000	0.0
140	0x00000000	0.0
141	0x00000000	0.0
142	0x00000000	0.0
143	0x00000000	0.0
144	0x00000000	0.0
145	0x00000000	0.0
146	0x00000000	0.0
147	0x00000000	0.0
148	0x00000000	0.0
149	0x00000000	0.0
150	0x00000000	0.0
151	0x00000000	0.0
152	0x00000000	0.0
153	0x00000000	0.0
154	0x00000000	0.0
155	0x00000000	0.0
156	0x00000000	0.0
157	0x00000000	0.0
158	0x00000000	0.0
159	0x00000000	0.0
160	0x00000000	0.0
161	0x00000000	0.0
162	0x00000000	0.0
163	0x00000000	0.0
164	0x00000000	0.0
165	0x00000000	0.0
166	0x00000000	0.0
167	0x00000000	0.0
168	0x00000000	0.0
169	0x00000000	0.0
170	0x00000000	0.0
171	0x00000000	0.0
172	0x00000000	0.0
173	0x00000000	0.0
174	0x00000000	0.0
175	0x00000000	0.0
176	0x00000000	0.0
177	0x00000000	0.0
178	0x00000000	0.0
179	0x00000000	0.0
180	0x00000000	0.0
181	0x00000000	0.0
182	0x00000000	0.0
183	0x00000000	0.0
184	0x00000000	0.0
185	0x00000000	0.0
186	0x00000000	0.0
187	0x00000000	0.0
188	0x00000000	0.0
189	0x00000000	0.0
190	0x00000000	0.0
191	0x00000000	0.0
192	0x00000000	0.0
193	0x00000000	0.0
194	0x00000000	0.0
195	0x00000000	0.0
196	0x00000000	0.0
197	0x00000000	0.0
198	0x00000000	0.0
199	0x00000000	0.0
200	0x00000000	0.0
201	0x00000000	0.0
202	0x00000000	0.0
203	0x00000000	0.0
204	0x00000000	0.0
205	0x00000000	0.0
206	0x00000000	0.0
207	0x00000000	0.0
208	0x00000000	0.0
209	0x00000000	0.0
210	0x00000000	0.0
211	0x00000000	0.0
212	0x00000000	0.0
213	0x00000000	0.0
214	0x00000000	0.0
215	0x00000000	0.0
216	0x00000000	0.0
217	0x00000000	0.0
218	0x00000000	0.0
219	0x00000000	0.0
220	0x00000000	0.0
221	0x00000000	0.0
222	0x00000000	0.0
223	0x00000000	0.0
224	0x00000000	0.0
225	0x00000000	0.0
226	0x00000000	0.0
227	0x00000000	0.0
228	0x00000000	0.0
229	0x00000000	0.0
230	0x00000000	0.0
231	0x00000000	0.0
232	0x00000000	0.0
233	0x00000000	0.0
234	0x00000000	0.0
235	0x00000000	0.0
236	0x00000000	0.0
237	0x00000000	0.0
238	0x00000000	0.0
239	0x00000000	0.0
240	0x00000000	0.0
241	0x00000000	0.0
242	0x00000000	0.0
243	0x00000000	0.0
244	0x00000000	0.0
245	0x00000000	0.0
246	0x00000000	0.0
247	0x00000000	0.0
248	0x00000000	0.0
249	0x00000000	0.0
250	0x00000000	0.0
251	0x00000000	0.0
252	0x00000000	0.0
253	0x00000000	0.0
254	0x00000000	0.0
255	0x00000000	0.0

sequential_3/dense_3/MatMul i1 [47, 128] scale=0.0045646275 zero_point=0
0	0x55	0.38799334
1	0xcb	-0.24192525
2	0x15	0.09585718
3	0xf2	-0.063904785
4	0x13	0.086727925
5	0x33	0.232796
6	0x11	0.07759867
7	0xb3	-0.3514763
8	0xd1	-0.2145375
9	0xf6	-0.045646276
10	0xda	-0.17345585
11	0xf2	-0.063904785
12	0x03	0.013693882
13	0x39	0.26018378
14	0x81	-0.5797077
15	0x13	0.086727925
16	0xf7	-0.04108165
17	0xff	-0.0045646275
18	0xdb	-0.16889122
19	0xd3	-0.20540825
20	0x26	0.17345585
21	0xdd	-0.15976197
22	0x29	0.18714973
23	0xaf	-0.36973482
24	0x0a	0.045646276
25	0x1b	0.12324494
26	0x01	0.0045646275
27	0xdc	-0.1643266
28	0xf2	-0.063904785
29	0x4c	0.3469117
30	0x4f	0.36060557
31	0x39	0.26018378
32	0xcf	-0.22366674
33	0xc2	-0.2830069
34	0x27	0.17802048
35	0x0c	0.05477553
36	0x24	0.1643266
37	0xf4	-0.05477553
38	0x41	0.29670078
39	0xc6	-0.2647484
40	0x36	0.24648988
41	0xd9	-0.17802048
42	0xc2	-0.2830069
43	0x17	0.10498644
44	0x59	0.40625185
45	0x0c	0.05477553
46	0xe7	-0.114115685
47	0x41	0.29670078
48	0xb9	-0.32408854
49	0x15	0.09585718
50	0x30	0.21910211
51	0x56	0.39255798
52	0xc4	-0.27387765
53	0x14	0.09129255
54	0xdf	-0.15063271
55	0x3b	0.26931304
56	0x48	0.3286532
57	0x34	0.23736063
58	0xd5	-0.19627899
59	0xf5	-0.050210904
60	0xa0	-0.43820423
61	0x0d	0.059340157
62	0x29	0.18714973
63	0x2d	0.20540825
64	0xf1	-0.06846941
65	0x29	0.18714973
66	0x2c	0.20084362
67	0xc3	-0.2784423
68	0x43	0.30583003
69	0x27	0.17802048
70	0x10	0.07303404
71	0xf4	-0.05477553
72	0x07	0.031952392
73	0x0b	0.050210904
74	0xf3	-0.059340157
75	0xfc	-0.01825851
76	0x14	0.09129255
77	0xe9	-0.10498644
78	0xcc	-0.23736063
79	0xbb	-0.3149593
80	0x07	0.031952392
81	0x28	0.1825851
82	0x3e	0.2830069
83	0x21	0.15063271
84	0x36	0.24648988
85	0xc7	-0.26018378
86	0x27	0.17802048
87	0xb8	-0.3286532
88	0x05	0.022823138
89	0xf3	-0.059340157
90	0x2a	0.19171436
91	0x43	0.30583003
92	0xe2	-0.13693883
93	0xe4	-0.12780957
94	0x16	0.10042181
95	0xd9	-0.17802048
96	0xcc	-0.23736063
97	0xd3	-0.20540825
98	0x3e	0.2830069
99	0x41	0.29670078
100	0xbf	-0.29670078
101	0x42	0.30126542
102	0x01	0.0045646275
103	0x31	0.22366674
104	0x05	0.022823138
105	0x20	0.14606808
106	0x37	0.25105453
107	0x12	0.0821633
108	0xbc	-0.31039467
109	0x1c	0.12780957
110	0xf3	-0.059340157
111	0x2f	0.2145375
112	0x1f	0.14150345
113	0xd9	-0.17802048
114	0xf8	-0.03651702
115	0x0d	0.059340157
116	0xda	-0.17345585
117	0x41	0.29670078
118	0xbb	-0.3149593
119	0xd3	-0.20540825
120	0x4f	0.36060557
121	0x00	0.0
122	0xf7	-0.04108165
123	0x0a	0.045646276
124	0x1e	0.13693883
125	0x09	0.04108165
126	0x2e	0.20997287
127	0x45	0.3149593
128	0xf1	-0.06846941
129	0xd5	-0.19627899
130	0x37	0.25105453
131	0xe6	-0.11868031
132	0x24	0.1643266
133	0x0a	0.045646276
134	0xe0	-0.14606808
135	0xfe	-0.009129255
136	0xd6	-0.19171436
137	0x50	0.3651702
138	0x42	0.30126542
139	0x4d	0.3514763
140	0x33	0.232796
141	0xd7	-0.18714973
142	0x26	0.17345585
143	0xd4	-0.20084362
144	0xd2	-0.20997287
145	0xf9	-0.031952392
146	0x01	0.0045646275
147	0xf2	-0.063904785
148	0xec	-0.09129255
149	0xef	-0.07759867
150	0x2a	0.19171436
151	0xfd	-0.013693882
152	0x48	0.3286532
153	0x0b	0.050210904
154	0xdf	-0.15063271
155	0x36	0.24648988
156	0xb7	-0.3332178
157	0xfd	-0.013693882
158	0x04	0.01825851
159	0xc3	-0.2784423
160	0xc7	-0.26018378
161	0x01	0.0045646275
162	0x2a	0.19171436
163	0x15	0.09585718
164	0xf1	-0.06846941
165	0xbd	-0.30583003
166	0xe0	-0.14606808
167	0xe4	-0.12780957
168	0xde	-0.15519734
169	0x29	0.18714973
170	0xb3	-0.3514763
171	0x30	0.21910211
172	0x23	0.15976197
173	0x22	0.15519734
174	0xf2	-0.063904785
175	0x32	0.22823137
176	0x05	0.022823138
177	0xd5	-0.19627899
178	0x1b	0.12324494
179	0x45	0.3149593
180	0x07	0.031952392
181	0xb0	-0.3651702
182	0xeb	-0.09585718
183	0x17	0.10498644
184	0xc4	-0.27387765
185	0xb5	-0.34234706
186	0xdd	-0.15976197
187	0xff	-0.0045646275
188	0xb5	-0.34234706
189	0x31	0.22366674
190	0x0a	0.045646276
191	0x4a	0.33778244
192	0xc0	-0.29213616
193	0x00	0.0
194	0x1b	0.12324494
195	0xb2	-0.35604095
196	0x40	0.29213616
197	0x24	0.1643266
198	0x06	0.027387764
199	0x00	0.0
200	0x00	0.0
201	0x20	0.14606808
202	0xeb	-0.09585718
203	0xfb	-0.022823138
204	0x26	0.17345585
205	0xf7	-0.04108165
206	0x14	0.09129255
207	0x3b	0.26931304
208	0x0e	0.063904785
209	0xb9	-0.32408854
210	0x2a	0.19171436
211	0x12	0.0821633
212	0x78	0.5477553
213	0xd3	-0.20540825
214	0x39	0.26018378
215	0x13	0.086727925
216	0x3d	0.2784423
217	0xd6	-0.19171436
218	0x06	0.027387764
219	0xea	-0.10042181
220	0xec	-0.09129255
221	0x22	0.15519734
222	0xcf	-0.22366674
223	0x10	0.07303404
224	0xdc	-0.1643266
225	0x18	0.10955106
226	0xb8	-0.3286532
227	0x27	0.17802048
228	0xe6	-0.11868031
229	0x33	0.232796
230	0xf2	-0.063904785
231	0x22	0.15519734
232	0xf4	-0.05477553
233	0x2a	0.19171436
234	0x1b	0.12324494
235	0xbd	-0.30583003
236	0xe5	-0.12324494
237	0x14	0.09129255
238	0x3a	0.2647484
239	0x3b	0.26931304
240	0x40	0.29213616
241	0x30	0.21910211
242	0xdb	-0.16889122
243	0xde	-0.15519734
244	0xff	-0.0045646275
245	0x15	0.09585718
246	0x1c	0.12780957
247	0x1c	0.12780957
248	0xe5	-0.12324494
249	0x49	0.3332178
250	0xb3	-0.3514763
251	0xc8	-0.25561914
252	0x2c	0.20084362
253	0x2b	0.19627899
254	0x28	0.1825851
255	0xcc	-0.23736063

lstm_3/lstm_cell_4/bias1 f4 [512]
0	0x3da7c0f2	0.08191098
1	0x3d65d9d2	0.056115933
2	0x3daab693	0.083356045
3	0x3d9fce29	0.07802994
4	0x3dc22aa2	0.09480788
5	0x3db15e03	0.086605094
6	0xbac925b5	-0.001534632
7	0x3da77614	0.081768185
8	0x3d893ba6	0.0670083
9	0x3dde46c3	0.108533405
10	0x3decc254	0.11560503
11	0x3c8c1c9b	0.017103484
12	0x3d7e84a6	0.062138222
13	0x3d80a967	0.06282311
14	0x3d7542a8	0.05987802
15	0x3dc86ca3	0.09786346
16	0x3d4c22cc	0.049837872
17	0x3dcb5ead	0.09930167
18	0x3d93d77b	0.07218834
19	0x3cd7bac4	0.026334174
20	0x3e0a9db9	0.13536729
21	0x3da736ff	0.081647865
22	0x3dbba99e	0.09163211
23	0x3d9f0ae5	0.0776575
24	0x3d8f2084	0.06988624
25	0x3dff84b6	0.124764845
26	0x3e0bb573	0.13643436
27	0x3d9a6436	0.07538645
28	0x3ca84a2d	0.020543182
29	0x3d63c997	0.055612173
30	0x3cf55ba8	0.029950932
31	0x3bfc4a6c	0.0076993015
32	0x3d88d58f	0.06681358
33	0x3da5a802	0.080886856
34	0x3d815653	0.06315293
35	0x3dea489d	0.11439631
36	0x3db26f49	0.08712632
37	0x3cd7e4ba	0.026354183
38	0x3cc554df	0.024088321
39	0x3c4164fd	0.011803863
40	0x3d54ede3	0.05198468
41	0x3dbf270e	0.09333621
42	0x3d89817e	0.06714152
43	0x3da7e11f	0.08197235
44	0x3d7e0cb7	0.062023845
45	0x3dcc1f01	0.09966851
46	0x3e2e8d61	0.1704612
47	0x3dd6167c	0.10453507
48	0x3e2ed9d5	0.17075284
49	0x3cae2bb0	0.021261066
50	0x3d722d8d	0.05912547
51	0x3dd27222	0.10275675
52	0x3dbf55cc	0.09342536
53	0x3d9b833f	0.075933926
54	0x3d93276b	0.07185253
55	0x3d37ef61	0.044906024
56	0x3db3be34	0.08776513
57	0x3e1844b0	0.14869952
58	0xbccdd7c0	-0.025127292
59	0x3d7bfa39	0.061517928
60	0x3dd155ce	0.10221444
61	0x3db2a0a8	0.08722049
62	0x391d0443	0.00014974274
63	0x3d4b9df4	0.049711183
64	0x3d876cb3	0.066125296
65	0x3c1d3a17	0.009596369
66	0x3d876937	0.06611865
67	0x3e124679	0.14284696
68	0x3d6c5e14	0.057706907
69	0x3d71693f	0.05893826
70	0x3da69409	0.08133704
71	0x3db3a536	0.08771746
72	0x3de8fc7b	0.11376282
73	0x3e183533	0.14864044
74	0x3df14648	0.11780983
75	0x3c732c67	0.014842129
76	0x3db2b454	0.08725801
77	0x3cfa6c07	0.03056909
78	0x3cc357a0	0.023845494
79	0x3d51bf74	0.051207975
80	0x3d878ac1	0.06618262
81	0x3cfc8890	0.030826837
82	0x3d437099	0.047714803
83	0x3e13c7b3	0.14431648
84	0x3d11d4b2	0.035603233
85	0x3b48cc8a	0.0030639493
86	0x3d21b139	0.039475653
87	0x3d20866e	0.039190702
88	0x3dc0d91c	0.0941641
89	0x3c81e3b5	0.01585565
90	0x3d8908f6	0.06691162
91	0x3e4ba7a2	0.19888166
92	0x3d959bd1	0.0730511
93	0x3e1bee59	0.15227641
94	0x3d539263	0.051653277
95	0x3d41623e	0.04721283
96	0x3da4364c	0.08018169
97	0x3da3eb7b	0.08003899
98	0x3d64939a	0.055804826
99	0x3e055e85	0.13024338
100	0x3e17b037	0.14813314
101	0x3ddb49c8	0.10707432
102	0x3be1bef8	0.0068892203
103	0x3d4ca977	0.0499663
104	0x3d0d3692	0.03447587
105	0x3dfa1eac	0.122128814
106	0x3db88401	0.09009553
107	0x3e1614e0	0.146564
108	0x3d8f0b9d	0.06984637
109	0x3da12608	0.07868582
110	0x3db9f28a	0.09079464
111	0x3df9be81	0.12194539
112	0x3d824bba	0.063621
113	0x3ae8b942	0.0017755406
114	0x3dc530ab	0.09628423
115	0x3da461f8	0.080264986
116	0x3d8384c2	0.06421806
117	0x3de67965	0.11253623
118	0x3e094e06	0.1340867
119	0x3de389d0	0.1111027
120	0x3d523e2b	0.05132882
121	0x3dc36039	0.095398374
122	0x3da07644	0.078350574
123	0x3cffcaf4	0.031224705
124	0x3d3fb6f5	0.04680534
125	0x3d0252f0	0.031817377
126	0x3d565e94	0.05233629
127	0x3daf9e5b	0.08575126
128	0x3f86e24a	1.0537808
129	0x3f7f9352	0.9983417
130	0x3f81692c	1.0110221
131	0x3f7f7492	0.9978725
132	0x3f84da58	1.0379133
133	0x3f80eeec	1.0072913
134	0x3f7a6a01	0.97818
135	0x3f714f2c	0.9426143
136	0x3f8090e7	1.0044221
137	0x3f8680ee	1.0508096
138	0x3f84fb08	1.0389109
139	0x3f7b5e41	0.98190695
140	0x3f808f78	1.0043783
141	0x3f82e641	1.0226518
142	0x3f7ca6df	0.98692125
143	0x3f8451fc	1.033752
144	0x3f83d9ae	1.0300806
145	0x3f83d8e2	1.0300562
146	0x3f7b74f1	0.98225313
147	0x3f757b34	0.9589112
148	0x3f877124	1.0581403
149	0x3f7db148	0.99098635
150	0x3f8ac4eb	1.0841345
151	0x3f83c77c	1.0295253
152	0x3f7c79a9	0.9862314
153	0x3f8489e3	1.035458
154	0x3f83513c	1.0259166
155	0x3f7b9d37	0.98286766
156	0x3f848123	1.0351909
157	0x3f819cd7	1.0125989
158	0x3f855521	1.0416604
159	0x3f720f55	0.94554645
160	0x3f7ee35b	0.99565667
161	0x3f7fd9e9	0.9994188
162	0x3f82637b	1.0186609
163	0x3f78c22c	0.9717128
164	0x3f857546	1.0426414
165	0x3f7ee77e	0.9957198
166	0x3f7ce2f0	0.9878378
167	0x3f6f622e	0.93509185
168	0x3f836803	1.0266117
169	0x3f8a4940	1.0803604
170	0x3f80d4a0	1.0064888
171	0x3f81356d	1.0094429
172	0x3f816724	1.0109601
173	0x3f87d645	1.0612265
174	0x3f8c64ed	1.09683
175	0x3f809d58	1.0048018
176	0x3f874b78	1.0569906
177	0x3f77bf3e	0.9677619
178	0x3f800f43	1.0004658
179	0x3f823df6	1.0175159
180	0x3f85a0b2	1.0439665
181	0x3f7e184c	0.99255824
182	0x3f7e5eac	0.9936321
183	0x3f7e17a9	0.9925485
184	0x3f7de8c2	0.99183285
185	0x3f87e3c2	1.0616381
186	0x3f717001	0.9431153
187	0x3f7c59ac	0.9857433
188	0x3f869bae	1.051626
189	0x3f7b66a9	0.9820352
190	0x3f755f84	0.9584887
191	0x3f7e5bee	0.99359024
192	0x3f82ea1c	1.0227695
193	0x3f75b51d	0.9597948
194	0x3f78e943	0.9723093
195	0x3f8a4d7d	1.0804898
196	0x3f80a763	1.0051082
197	0x3f819de6	1.0126312
198	0x3f8776e2	1.0583155
199	0x3f823ad5	1.0174204
200	0x3f84d800	1.0378418
201	0x3f92b3dc	1.1461139
202	0x3f891780	1.0710297
203	0x3f7451e4	0.95437455
204	0x3f8804c7	1.0626458
205	0x3f81ada6	1.0131118
206	0x3f764379	0.96196705
207	0x3f82d91a	1.0222504
208	0x3f7fde5b	0.9994866
209	0x3f7fdf28	0.99949884
210	0x3f7fe745	0.99962264
211	0x3f855ff4	1.0419908
212	0x3f82dac3	1.0223011
213	0x3f7d90ab	0.9904887
214	0x3f80137c	1.0005946
215	0x3f76f692	0.96469986
216	0x3f845a65	1.0340086
217	0x3f7197cb	0.9437224
218	0x3f7c6ef5	0.98606807
219	0x3f8c0b84	1.0941014
220	0x3f78f99e	0.97255886
221	0x3f87eb3f	1.0618666
222	0x3f817f6e	1.0117013
223	0x3f805dca	1.0028622
224	0x3f76eff9	0.9645992
225	0x3f88ebec	1.0696998
226	0x3f7aabbc	0.97918296
227	0x3f852f0b	1.0404981
228	0x3f841f6e	1.0322092
229	0x3f81c0d6	1.0136974
230	0x3f747bf2	0.95501626
231	0x3f806459	1.0030624
232	0x3f82623e	1.0186231
233	0x3f8892c6	1.0669792
234	0x3f7de751	0.99181086
235	0x3f85d923	1.045689
236	0x3f823b14	1.0174279
237	0x3f8620d8	1.0478773
238	0x3f84b2ec	1.0367103
239	0x3f848c7d	1.0355374
240	0x3f826002	1.0185549
241	0x3f762c9b	0.9616181
242	0x3f8a398d	1.0798813
243	0x3f87b751	1.0602819
244	0x3f771b1a	0.9652573
245	0x3f867c66	1.0506713
246	0x3f8a289b	1.0793642
247	0x3f860346	1.0469749
248	0x3f835657	1.0260724
249	0x3f9019cb	1.1257871
250	0x3f81d896	1.0144222
251	0x3f792e25	0.97336036
252	0x3f86f2bb	1.0542825
253	0x3f8251b5	1.0181185
254	0x3f7a864f	0.9786119
255	0x3f81e7b1	1.0148832

while/MatMul_1 i1 [512, 128] scale=0.0038524142 zero_point=0
0	0xd6	-0.1618014
1	0xed	-0.07319587
2	0x07	0.0269669
3	0x1a	0.10016277
4	0x2c	0.16950622
5	0xee	-0.069343455
6	0xe7	-0.096310355
7	0xff	-0.0038524142
8	0x06	0.023114486
9	0x01	0.0038524142
10	0xed	-0.07319587
11	0xe5	-0.10401519
12	0x1b	0.10401519
13	0x00	0.0
14	0x24	0.13868691
15	0x17	0.08860552
16	0xcd	-0.19647312
17	0xfd	-0.011557243
18	0xfb	-0.019262072
19	0xfd	-0.011557243
20	0xd3	-0.17335863
21	0xf0	-0.061638627
22	0x26	0.14639173
23	0x38	0.2157352
24	0x02	0.0077048284
25	0x16	0.08475311
26	0xf7	-0.034671728
27	0xe8	-0.09245794
28	0x08	0.030819314
29	0xee	-0.069343455
30	0x05	0.019262072
31	0xf7	-0.034671728
32	0xe9	-0.08860552
33	0x0f	0.05778621
34	0x0c	0.04622897
35	0x06	0.023114486
36	0xe3	-0.11172001
37	0x0f	0.05778621
38	0xdc	-0.13868691
39	0xf9	-0.0269669
40	0x22	0.13098209
41	0xf0	-0.061638627
42	0x02	0.0077048284
43	0x06	0.023114486
44	0xcb	-0.20417795
45	0x12	0.069343455
46	0xad	-0.31975037
47	0x1b	0.10401519
48	0xf7	-0.034671728
49	0xec	-0.07704829
50	0xed	-0.07319587
51	0x06	0.023114486
52	0xea	-0.08475311
53	0xe3	-0.11172001
54	0xb1	-0.30434072
55	0x01	0.0038524142
56	0x06	0.023114486
57	0x0d	0.050081383
58	0x1e	0.11557242
59	0x15	0.0809007
60	0x12	0.069343455
61	0x17	0.08860552
62	0xfe	-0.0077048284
63	0x08	0.030819314
64	0x05	0.019262072
65	0x2f	0.18106347
66	0x11	0.06549104
67	0x03	0.011557243
68	0x0b	0.042376556
69	0x0c	0.04622897
70	0x42	0.25425935
71	0xe0	-0.123277254
72	0x2a	0.1618014
73	0x3d	0.23499727
74	0xe9	-0.08860552
75	0x2a	0.1618014
76	0x25	0.14253932
77	0x16	0.08475311
78	0x0e	0.0539338
79	0x05	0.019262072
80	0xd0	-0.18491589
81	0x1f	0.11942484
82	0xea	-0.08475311
83	0xf4	-0.04622897
84	0x04	0.015409657
85	0x12	0.069343455
86	0x04	0.015409657
87	0xf4	-0.04622897
88	0xf4	-0.04622897
89	0x16	0.08475311
90	0xfd	-0.011557243
91	0xff	-0.0038524142
92	0xfb	-0.019262072
93	0x03	0.011557243
94	0x1b	0.10401519
95	0xd5	-0.16565381
96	0x22	0.13098209
97	0xd7	-0.15794899
98	0xfb	-0.019262072
99	0xbe	-0.25425935
100	0xff	-0.0038524142
101	0xe3	-0.11172001
102	0x14	0.07704829
103	0x07	0.0269669
104	0x07	0.0269669
105	0x50	0.30819315
106	0x20	0.123277254
107	0x1f	0.11942484
108	0x1e	0.11557242
109	0x03	0.011557243
110	0xf8	-0.030819314
111	0x26	0.14639173
112	0x19	0.096310355
113	0xf7	-0.034671728
114	0xe8	-0.09245794
115	0x2f	0.18106347
116	0xe3	-0.11172001
117	0x13	0.07319587
118	0x14	0.07704829
119	0x01	0.0038524142
120	0xd7	-0.15794899
121	0xec	-0.07704829
122	0x1f	0.11942484
123	0x06	0.023114486
124	0x26	0.14639173
125	0xf4	-0.04622897
126	0xe5	-0.10401519
127	0x12	0.069343455
128	0xfa	-0.023114486
129	0xed	-0.07319587
130	0x28	0.15409657
131	0xe2	-0.11557242
132	0xf3	-0.050081383
133	0xee	-0.069343455
134	0xd9	-0.15024415
135	0x27	0.15024415
136	0xfb	-0.019262072
137	0x08	0.030819314
138	0x15	0.0809007
139	0xeb	-0.0809007
140	0x24	0.13868691
141	0xff	-0.0038524142
142	0x39	0.21958761
143	0xed	-0.07319587
144	0xca	-0.20803037
145	0xdb	-0.14253932
146	0x23	0.1348345
147	0xdb	-0.14253932
148	0xd4	-0.16950622
149	0xfe	-0.0077048284
150	0x39	0.21958761
151	0xf2	-0.0539338
152	0xdb	-0.14253932
153	0x0b	0.042376556
154	0x06	0.023114486
155	0xe5	-0.10401519
156	0x1c	0.1078676
157	0x09	0.034671728
158	0x19	0.096310355
159	0x06	0.023114486
160	0xf4	-0.04622897
161	0xf4	-0.04622897
162	0xeb	-0.0809007
163	0xf2	-0.0539338
164	0x0e	0.0539338
165	0xef	-0.06549104
166	0x11	0.06549104
167	0x1c	0.1078676
168	0x0a	0.038524143
169	0xd4	-0.16950622
170	0x19	0.096310355
171	0x07	0.0269669
172	0x04	0.015409657
173	0xed	-0.07319587
174	0x0c	0.04622897
175	0xed	-0.07319587
176	0x14	0.07704829
177	0x0c	0.04622897
178	0xee	-0.069343455
179	0xee	-0.069343455
180	0xf7	-0.034671728
181	0x20	0.123277254
182	0xe1	-0.11942484
183	0xd0	-0.18491589
184	0xfa	-0.023114486
185	0x3c	0.23114485
186	0x31	0.1887683
187	0x0f	0.05778621
188	0x1f	0.11942484
189	0xf7	-0.034671728
190	0x0a	0.038524143
191	0xf0	-0.061638627
192	0xf5	-0.042376556
193	0x13	0.07319587
194	0x14	0.07704829
195	0x1c	0.1078676
196	0xcb	-0.20417795
197	0x13	0.07319587
198	0x3b	0.22729243
199	0xed	-0.07319587
200	0x1f	0.11942484
201	0x41	0.25040692
202	0xdf	-0.12712967
203	0xf2	-0.0539338
204	0x20	0.123277254
205	0x0f	0.05778621
206	0x2b	0.16565381
207	0x07	0.0269669
208	0xf2	-0.0539338
209	0xef	-0.06549104
210	0xfc	-0.015409657
211	0xf5	-0.042376556
212	0xe9	-0.08860552
213	0xee	-0.069343455
214	0xde	-0.13098209
215	0xf5	-0.042376556
216	0xf8	-0.030819314
217	0xf8	-0.030819314
218	0xf4	-0.04622897
219	0xc6	-0.22344002
220	0xdb	-0.14253932
221	0x18	0.09245794
222	0x3e	0.23884968
223	0xd7	-0.15794899
224	0xf5	-0.042376556
225	0xfe	-0.0077048284
226	0x2a	0.1618014
227	0xfa	-0.023114486
228	0x1b	0.10401519
229	0xea	-0.08475311
230	0x02	0.0077048284
231	0x27	0.15024415
232	0xe5	-0.10401519
233	0x1e	0.11557242
234	0x29	0.15794899
235	0x37	0.21188278
236	0xf0	-0.061638627
237	0x03	0.011557243
238	0x0d	0.050081383
239	0x1a	0.10016277
240	0x02	0.0077048284
241	0xf5	-0.042376556
242	0xe8	-0.09245794
243	0x19	0.096310355
244	0xc5	-0.22729243
245	0x1c	0.1078676
246	0x11	0.06549104
247	0xf2	-0.0539338
248	0xe8	-0.09245794
249	0xcb	-0.20417795
250	0x29	0.15794899
251	0x1b	0.10401519
252	0x2d	0.17335863
253	0xe3	-0.11172001
254	0xe2	-0.11557242
255	0x05	0.019262072

while/MatMul i1 [512, 20] scale=0.0036844101 zero_point=0
0	0x07	0.02579087
1	0x05	0.01842205
2	0x1a	0.09579466
3	0x11	0.062634975
4	0x26	0.14000759
5	0x19	0.092110254
6	0x2b	0.15842964
7	0x23	0.12895435
8	0xfd	-0.011053231
9	0x24	0.13263877
10	0x16	0.08105702
11	0x0d	0.04789733
12	0x12	0.06631938
13	0x37	0.20264256
14	0x07	0.02579087
15	0x02	0.0073688203
16	0xf6	-0.0368441
17	0x3e	0.22843343
18	0x17	0.084741436
19	0x27	0.143692
20	0x33	0.18790491
21	0x0a	0.0368441
22	0xf4	-0.044212922
23	0x1c	0.10316348
24	0x1b	0.09947907
25	0x10	0.058950562
26	0xf3	-0.04789733
27	0x04	0.0147376405
28	0x17	0.084741436
29	0xff	-0.0036844101
30	0x1c	0.10316348
31	0xe6	-0.09579466
32	0x19	0.092110254
33	0x00	0.0
34	0x08	0.029475281
35	0xf6	-0.0368441
36	0xf1	-0.055266153
37	0x0b	0.04052851
38	0x06	0.022106461
39	0xfd	-0.011053231
40	0x26	0.14000759
41	0x0c	0.044212922
42	0x27	0.143692
43	0x28	0.1473764
44	0x08	0.029475281
45	0x12	0.06631938
46	0x3d	0.22474901
47	0x0a	0.0368441
48	0x29	0.15106082
49	0x08	0.029475281
50	0xe6	-0.09579466
51	0x08	0.029475281
52	0x29	0.15106082
53	0x2b	0.15842964
54	0x2f	0.17316727
55	0x25	0.13632317
56	0x1e	0.110532306
57	0xf5	-0.04052851
58	0x00	0.0
59	0x13	0.07000379
60	0x0f	0.055266153
61	0xfa	-0.022106461
62	0x1a	0.09579466
63	0x00	0.0
64	0xef	-0.062634975
65	0x20	0.117901124
66	0x1c	0.10316348
67	0xe9	-0.084741436
68	0x22	0.12526995
69	0x21	0.12158553
70	0xf3	-0.04789733
71	0x2b	0.15842964
72	0x21	0.12158553
73	0x19	0.092110254
74	0x07	0.02579087
75	0xdc	-0.13263877
76	0xf5	-0.04052851
77	0x06	0.022106461
78	0x1e	0.110532306
79	0x09	0.03315969
80	0x17	0.084741436
81	0x2b	0.15842964
82	0x09	0.03315969
83	0x18	0.088425845
84	0x1f	0.114216715
85	0x33	0.18790491
86	0x25	0.13632317
87	0x0c	0.044212922
88	0x22	0.12526995
89	0x13	0.07000379
90	0x2b	0.15842964
91	0x20	0.117901124
92	0x41	0.23948666
93	0x19	0.092110254
94	0xfa	-0.022106461
95	0x2d	0.16579846
96	0xf2	-0.05158174
97	0x03	0.011053231
98	0x1b	0.09947907
99	0xe4	-0.10316348
100	0x23	0.12895435
101	0x2a	0.15474522
102	0x23	0.12895435
103	0x2b	0.15842964
104	0x08	0.029475281
105	0x2b	0.15842964
106	0x12	0.06631938
107	0xe7	-0.092110254
108	0x1d	0.1068479
109	0x08	0.029475281
110	0xf1	-0.055266153
111	0x00	0.0
112	0xfb	-0.01842205
113	0xdf	-0.12158553
114	0xf5	-0.04052851
115	0x12	0.06631938
116	0x2f	0.17316727
117	0x23	0.12895435
118	0x3e	0.22843343
119	0x2f	0.17316727
120	0x3a	0.2136958
121	0x38	0.20632696
122	0xfa	-0.022106461
123	0x2f	0.17316727
124	0x1d	0.1068479
125	0x03	0.011053231
126	0x22	0.12526995
127	0x1d	0.1068479
128	0x1f	0.114216715
129	0x29	0.15106082
130	0x40	0.23580225
131	0x09	0.03315969
132	0xf4	-0.044212922
133	0x04	0.0147376405
134	0x25	0.13632317
135	0xf6	-0.0368441
136	0xf0	-0.058950562
137	0x02	0.0073688203
138	0x3b	0.2173802
139	0x17	0.084741436
140	0xf9	-0.02579087
141	0x05	0.01842205
142	0x20	0.117901124
143	0xf2	-0.05158174
144	0xff	-0.0036844101
145	0x19	0.092110254
146	0x02	0.0073688203
147	0x2c	0.16211404
148	0x13	0.07000379
149	0x09	0.03315969
150	0x0f	0.055266153
151	0x0b	0.04052851
152	0x0d	0.04789733
153	0x26	0.14000759
154	0x0d	0.04789733
155	0x41	0.23948666
156	0xf1	-0.055266153
157	0x28	0.1473764
158	0x13	0.07000379
159	0x15	0.07737261
160	0x07	0.02579087
161	0xfe	-0.0073688203
162	0x16	0.08105702
163	0x02	0.0073688203
164	0x16	0.08105702
165	0x3e	0.22843343
166	0x02	0.0073688203
167	0x03	0.011053231
168	0xe5	-0.09947907
169	0xf2	-0.05158174
170	0x15	0.07737261
171	0x24	0.13263877
172	0xf5	-0.04052851
173	0x07	0.02579087
174	0x28	0.1473764
175	0x0f	0.055266153
176	0xee	-0.06631938
177	0x10	0.058950562
178	0x0e	0.05158174
179	0x19	0.092110254
180	0x23	0.12895435
181	0x1a	0.09579466
182	0x0e	0.05158174
183	0x32	0.18422051
184	0x13	0.07000379
185	0x0e	0.05158174
186	0xff	-0.0036844101
187	0x15	0.07737261
188	0xff	-0.0036844101
189	0x02	0.0073688203
190	0x00	0.0
191	0x0d	0.04789733
192	0x10	0.058950562
193	0x15	0.07737261
194	0x1c	0.10316348
195	0x00	0.0
196	0x14	0.0736882
197	0xfe	-0.0073688203
198	0xfc	-0.0147376405
199	0x26	0.14000759
200	0x01	0.0036844101
201	0xf7	-0.03315969
202	0x19	0.092110254
203	0x17	0.084741436
204	0xfb	-0.01842205
205	0x05	0.01842205
206	0xfd	-0.011053231
207	0xff	-0.0036844101
208	0x1f	0.114216715
209	0x08	0.029475281
210	0x1c	0.10316348
211	0x13	0.07000379
212	0x1f	0.114216715
213	0x0e	0.05158174
214	0xfd	-0.011053231
215	0xf8	-0.029475281
216	0xfe	-0.0073688203
217	0x10	0.058950562
218	0xd5	-0.15842964
219	0x0c	0.044212922
220	0x29	0.15106082
221	0x17	0.084741436
222	0x0c	0.044212922
223	0x28	0.1473764
224	0x2a	0.15474522
225	0x17	0.084741436
226	0x06	0.022106461
227	0x16	0.08105702
228	0x4c	0.28001517
229	0x12	0.06631938
230	0x34	0.19158933
231	0x0e	0.05158174
232	0x15	0.07737261
233	0x32	0.18422051
234	0x24	0.13263877
235	0x0a	0.0368441
236	0xfc	-0.0147376405
237	0xda	-0.14000759
238	0xe8	-0.088425845
239	0xf1	-0.055266153
240	0x25	0.13632317
241	0xfb	-0.01842205
242	0x10	0.058950562
243	0x0a	0.0368441
244	0xdc	-0.13263877
245	0x0f	0.055266153
246	0x0e	0.05158174
247	0xe4	-0.10316348
248	0x06	0.022106461
249	0x19	0.092110254
250	0xdc	-0.13263877
251	0x11	0.062634975
252	0xec	-0.0736882
253	0xf6	-0.0368441
254	0xe9	-0.084741436
255	0x1f	0.114216715
